ppo_1.pt (torch, 17128 bytes, 7 tensors)

weight f4 [128, 8]
000000 6c b4 c5 be 60 96 f0 3d 98 be 66 bd 6f 5a ce be
       -0.38614213 0.11747432 -0.056334108 -0.4030337
000010 04 31 3a be 9f e9 d7 bd 68 22 7b be 62 28 13 3d
       -0.1818276 -0.105426066 -0.24524844 0.035927184
000020 27 4c 41 be 7b f6 75 3e 09 59 ff be 57 dd 47 3f
       -0.18876706 0.24019806 -0.49872616 0.7807211
000030 b0 bb 74 3e fe c0 49 bd bc 49 fc 3d e0 b6 35 3e
       0.23899722 -0.049256317 0.12318751 0.17745543
000040 3d 4b 86 3e 0f 95 41 3e d5 c7 f6 bd 74 95 8d 3f
       0.26229277 0.18904518 -0.12049834 1.1061234
000050 8c 2e 71 3e f0 13 f7 3d b7 11 98 be 61 40 ae be
       0.23552912 0.1206435 -0.29701015 -0.34033492
000060 0c 31 8b be 1c 71 6a bd 97 1e 80 3c 4d 7d 93 3e
       -0.27185857 -0.057236776 0.015639586 0.28806534
000070 dc 7a 42 3d 2b 58 b3 be f7 66 b8 bd 57 ee a1 3d
       0.04748045 -0.35028204 -0.09004014 0.07906788
000080 96 31 9c 3e 33 fb a4 3e 29 d1 1b 3e d9 30 c7 be
       0.3050658 0.322229 0.15216507 -0.38904455
000090 12 64 6e bb ac b3 86 3e 1a b3 20 3e 45 69 55 be
       -0.0036375565 0.26308954 0.15693322 -0.20840938
0000a0 1a 78 2b 3f 96 ae 69 be 3a ab 99 3e 0f 92 70 3e
       0.66980135 -0.22820505 0.30013448 0.23493217
0000b0 ab 29 04 3f 81 db e9 3e 73 48 2c bc d8 98 d6 3e
       0.5162608 0.4567528 -0.01051532 0.41913486
0000c0 8a c1 06 3f c4 2e 00 bf 3c 03 97 38 07 90 bd bd
       0.5263907 -0.5007136 7.2008435e-05 -0.09255987
0000d0 23 49 51 3e f8 36 89 be fe 57 2f 39 79 ce 11 be
       0.20438056 -0.2679975 0.0001672208 -0.1423892
0000e0 b7 33 42 3e 8e 2f 73 3e 52 a3 c2 3e c5 4d a2 3e
       0.1896504 0.2374861 0.3801523 0.31699958
0000f0 a0 61 96 3e e3 06 9d 3e be df ec 3e fc 30 26 3d
       0.29371357 0.30669317 0.46264452 0.04057406
000100 f9 7b f8 3d 03 8c 6e 3e 0e a0 b9 3e 54 9a f8 3e
       0.12133021 0.23295598 0.36254925 0.48555243
000110 7e 62 93 3e 1e d0 0d bf bf 03 a5 3a 35 d4 01 be
       0.2878608 -0.55395687 0.0012589617 -0.12678607
000120 be ed 0f bf 92 8a 1c be 78 f8 78 bf 72 b5 d9 bb
       -0.5622214 -0.15287235 -0.97254133 -0.0066439444
000130 42 ef 7e bc 5c 97 0d 3f e8 0f 88 3d 30 1e a6 bd
       -0.015559973 0.5530908 0.06643659 -0.081112266
000140 be d3 c6 bd 57 75 4d be 3f 7d 1f 3f 8d 45 6b 3d
       -0.09708355 -0.20064293 0.62300485 0.057439376
000150 43 0b 61 bf f1 bb 56 bb 18 8b 95 be c9 77 e0 3d
       -0.8790781 -0.003276583 -0.29207683 0.10960347
000160 ea be 39 bd 95 f7 16 3a 76 10 ae be 5d 91 ae be
       -0.045348085 0.00057589385 -0.33996934 -0.34095278
000170 a2 28 81 3c 2f 9f b7 3e dd bc bc 3e 87 ca fd 3d
       0.015766446 0.35863635 0.3686284 0.12392145
000180 9f 0f 7a 3e a6 42 43 3e c5 9a 43 3f a1 8b 53 3e
       0.24420021 0.19068393 0.76408035 0.20658733
000190 ca dd b1 3e 86 d3 fb 3e 23 1b a3 bd 48 81 26 bd
       0.34739524 0.49184817 -0.0796416 -0.040650636
0001a0 2c c4 df bd f5 12 2e bf 9c 3f 8d be 25 a2 cf be
       -0.10926089 -0.67997676 -0.27587593 -0.40553394
0001b0 78 52 9e 3d 05 c4 2b 3e cb ab 54 be 90 8f b6 3e
       0.077305734 0.16773994 -0.20768659 0.35656404
0001c0 7e 15 1d be ae b5 d9 bc 3e e1 3f be 9b 9d dd be
       -0.1534023 -0.02657589 -0.18738267 -0.43284306
0001d0 75 ef 5d be 36 29 d0 bd 74 f2 e3 be 54 13 f5 be
       -0.21673377 -0.1016411 -0.44520915 -0.4786631
0001e0 e1 8e c8 be 93 ce 5c 3d 98 c1 00 3f 03 fa ae be
       -0.39171508 0.053907942 0.502954 -0.3417512
0001f0 c0 10 2c bf f9 ba 0a be bb ca f2 3d 25 ac 0e 3e
       -0.6721306 -0.13547887 0.11855074 0.13932855
000200 43 d3 3b 3f ac 2c 1d 3e 29 27 1c 3e 69 d5 28 3d
       0.73369235 0.15349072 0.15249313 0.04121915
000210 d0 ad 19 3f b1 b3 f6 3e 33 96 16 3f 85 3d c6 3d
       0.6003084 0.4818397 0.58822936 0.09679703
000220 e9 1f 40 bd 66 80 d0 bd 21 81 10 3f 35 c4 4d be
       -0.046905432 -0.1018074 0.56447035 -0.20094378
000230 2b 5b 5d bf a6 e6 f7 bd 3b 10 eb bd 53 6f 3d 3e
       -0.86467236 -0.121045396 -0.11477705 0.18499498
000240 5c d4 c3 3e 6c 64 22 3e fd e3 b2 be 44 56 20 3e
       0.38247955 0.1585862 -0.34939566 0.15657908
000250 4d 1d ec 3e 26 dd 06 bf 54 d0 b6 bb 93 7b aa 3e
       0.46116105 -0.52681196 -0.005579034 0.33297405
000260 4b 5e 87 3e 29 36 ff be 8c 6e d7 3e b1 d6 38 be
       0.26439127 -0.49846008 0.42076528 -0.18050648
000270 92 5c a0 be 71 a8 4c be 3c 14 09 3f f8 06 d3 3e
       -0.31320626 -0.1998613 0.535465 0.41216254
000280 d6 e4 80 be ed 01 a2 bd 70 7a 3f be c7 85 06 bf
       -0.25174588 -0.079105236 -0.1869905 -0.5254788
000290 74 40 91 be b1 92 95 bd f0 96 1d be 1b f2 f8 be
       -0.28369486 -0.0730337 -0.1538961 -0.48622212
0002a0 76 79 24 3c 08 69 ab be ee 53 06 be 33 62 2b be
       0.010038724 -0.3347857 -0.13117954 -0.16736679
0002b0 fe c8 8c 3e 58 89 9d bc ed e7 32 3e 62 aa 4d 3d
       0.27497095 -0.01923053 0.17471285 0.050211318
0002c0 e9 d7 a2 be 27 a3 87 bc 02 85 3a 3e 76 33 1b 3c
       -0.3180535 -0.01655729 0.18214801 0.009472718
0002d0 97 5b 3f bf 83 be b9 3e 33 b4 45 be 36 67 7c be
       -0.7474913 0.3627816 -0.19307022 -0.24648747
0002e0 46 07 81 be ea 12 e6 3e 51 79 8e be 7b f8 a3 bd
       -0.25200862 0.44936305 -0.27826932 -0.08006378
0002f0 97 21 84 3e a6 24 2f be c8 9e 78 be 80 90 4f 3d
       0.25806877 -0.17103824 -0.2427932 0.050674915
000300 54 90 ab 3e 0d 7f e6 3e 04 73 9e 3e 83 7b 52 be
       0.3350855 0.45018807 0.30947125 -0.20554928
000310 18 66 9f 3d f4 a1 7d 3d 8a 55 d1 be bb d6 82 be
       0.07783145 0.06192203 -0.40885574 -0.2555445
000320 de 27 1e bf ec 43 ca bc 04 3a a9 be 65 ce 00 bf
       -0.6177958 -0.02469059 -0.33052075 -0.50314933
000330 a1 02 59 3e a4 3f 20 3e bc e4 8a be 2b c2 38 3e
       0.21192409 0.15649277 -0.27127635 0.18042819
000340 1d f3 7e be 2f bc 98 3e 7b 46 36 bf 16 6c 4d 3f
       -0.24897428 0.29831073 -0.71201295 0.8024305
000350 61 f6 89 3e 60 d2 9b 3d 33 a5 6e be 05 bb 8f 3d
       0.26945785 0.07608485 -0.23305206 0.07018093
000360 47 2e cc be d6 18 9b be 63 b5 76 bf 90 b8 ec be
       -0.39879057 -0.30292386 -0.96370524 -0.4623456
000370 2d 03 ad 3e 92 dc 41 3e ba 6e 1b be 80 a9 49 3e
       0.33791485 0.18931797 -0.15178958 0.19693565
000380 fb 5c fb 3e ef ed 1b bf fe 6f 33 3e 5f 91 39 bd
       0.49094376 -0.6090993 0.1752319 -0.045304652
000390 d0 18 ae bd 8c 86 9b 3e 8d ef ce 3e cb db be bd
       -0.08500826 0.3037609 0.40417138 -0.09319266
0003a0 0a 0c e1 3d 34 a9 f0 3d de 80 ea bc e3 a7 cc be
       0.109886244 0.11751023 -0.028625902 -0.39971837
0003b0 33 88 90 bf 6f ec b4 be 15 40 b2 be ea 8c 89 be
       -1.1291565 -0.35336635 -0.34814516 -0.2686532
0003c0 69 6a 32 bd 4e 7e c4 3c 9e e8 e1 3d a9 93 db be
       -0.043558512 0.023986008 0.11030696 -0.42886093
0003d0 3d ee 24 3f 6c c6 8f bd db ca 2b 3e 14 c6 89 be
       0.6442602 -0.07020268 0.16776602 -0.26908934
0003e0 3d 96 44 3e ff 28 f0 bd 65 a7 87 be 3b 3e 48 3e
       0.19197936 -0.117265694 -0.264949 0.19554989
0003f0 d6 52 e6 bc d1 57 a0 bd de 01 d3 bd 21 59 b9 3d
       -0.028115671 -0.0782925 -0.103030905 0.09050203

bias f4 [128]
000000 ca 03 3c 3e a1 ba 20 be 7d 24 00 bd ab 10 4b 3e
       0.1836082 -0.15696193 -0.031284798 0.19830577
000010 eb 4e 1c 3e f7 ae d2 3e bf 81 c0 3e 76 fe ac 3e
       0.1526448 0.41149113 0.37598988 0.33787888
000020 7a 55 13 3e ff 92 17 3e d7 ae e9 3e ac 9a 7e be
       0.14388075 0.14802168 0.45641205 -0.2486369
000030 47 42 99 3c fc 3f 74 3e 1c 10 c9 3e 63 c2 bd 3c
       0.018708361 0.23852533 0.39270103 0.02316398
000040 41 ef 6a bd cb 18 90 3e f1 c4 11 be 0d de bc bd
       -0.057357077 0.28143916 -0.14235283 -0.0922204
000050 33 98 ae 3e a3 dc 61 3e dc 18 88 3e c4 3e 4c 3e
       0.34100494 0.22056822 0.26581466 0.19945818
000060 53 1c 6d 3e 2b aa 44 be 23 59 68 be eb 75 c3 3e
       0.23155336 -0.19205539 -0.22690253 0.38175902
000070 1b 5e 73 3c 8f fc a1 be 34 c0 3d be 64 82 b2 be
       0.014853979 -0.31638 -0.18530351 -0.34865105
000080 58 ee c1 be 1d 68 25 3e 3c 0e 0b be 3b d0 04 3e
       -0.37877154 0.16152997 -0.13579649 0.12970059
000090 3f e6 90 3e 30 78 0c 3e 1c 83 96 3e 66 f0 8e 3e
       0.28300664 0.13717723 0.29396904 0.27917784
0000a0 18 8d 3c 3d 82 ea 9a 3e e4 e7 8b bd c8 8c 97 3e
       0.046032995 0.3025704 -0.06831339 0.29599595
0000b0 7a b1 b5 3d 83 d5 81 3e e7 06 c3 3d 1e d1 12 3e
       0.088717416 0.2535821 0.09522801 0.14337584
0000c0 e4 5b a4 be 9c 6f 8a 3e ee 2a 8f 3e e2 41 3c be
       -0.32101357 0.27038276 0.2796244 -0.18384507
0000d0 62 85 cc 3d c3 3f bd be 41 7c 81 3c 07 ee 3c be
       0.09986378 -0.3696271 0.01580632 -0.18450175
0000e0 de 2a c6 3e 79 86 58 be 61 dd f0 3e 69 f8 53 be
       0.3870458 -0.21145047 0.470439 -0.2070023
0000f0 e0 d9 c9 3c 01 b3 42 be 75 33 b8 3e 50 19 01 3e
       0.024640024 -0.19013597 0.3597676 0.12607312
000100 aa 83 2b be 9a d0 5d 3d 69 e8 9b 3c 5a b3 8d 3e
       -0.16749445 0.054154016 0.01903172 0.27675897
000110 74 de c8 3d 9d 62 77 be 38 b5 8d 3d 9f 08 c1 3e
       0.098080546 -0.24158712 0.0691933 0.3770189
000120 a0 87 0e 3d 9c 08 4c 3e 23 84 28 be d1 de 77 be
       0.03479731 0.19925159 -0.16456656 -0.24206091
000130 dc 43 aa 3e d3 47 14 bc 1e ba 80 bc 9b b9 10 be
       0.33254898 -0.009050327 -0.015713748 -0.14133303
000140 40 ef c1 3d d4 46 10 3e 96 e2 1d be 39 86 ba 3d
       0.094694614 0.14089519 -0.15418467 0.09107632
000150 3b aa ef bd 9b c9 f8 3d f8 ca 9d 3e e2 73 61 be
       -0.11702391 0.12147828 0.30818915 -0.22016862
000160 03 d8 52 3e e9 9f 5e 3e 96 77 98 3e 06 c7 76 3e
       0.20590214 0.21740688 0.29778737 0.24099359
000170 49 91 bb be 10 0d 03 be 73 d6 38 3e 58 c6 43 bd
       -0.3663428 -0.12797952 0.18050556 -0.047796577
000180 9e 9e ae 3e c4 5b 15 bd c7 d0 b8 3d bc 05 24 3e
       0.3410539 -0.036464468 0.09024196 0.16017812
000190 a9 3e 53 3d 61 31 2f be ae d5 db bd 3a a4 6c 3d
       0.05157343 -0.1710868 -0.107341155 0.057773806
0001a0 90 7c 73 be 13 10 56 be 69 40 92 3e ea 7b 8e 3e
       -0.23777986 -0.2090457 0.28564766 0.27828914
0001b0 b8 14 b0 3e 49 d9 8f be eb 6e 9d be a6 af 3a 3e
       0.34390807 -0.28095463 -0.30748686 0.18231067
0001c0 1e ce 98 3e 62 49 bc 3d d4 d9 e5 3d 71 dc ac 3d
       0.29844755 0.09193684 0.11223188 0.08440483
0001d0 e9 89 b7 3e 84 ff 56 3e 8f de 1e 3e 35 9c 76 3e
       0.35847405 0.20995909 0.15514587 0.24083026
0001e0 27 1a 7c 3d da e2 96 3c ac 9d b1 3e 17 eb a4 3c
       0.06154838 0.018418718 0.34690607 0.02013163
0001f0 46 a5 2e bc c0 6c 87 3e e9 f6 55 bd 8b 6f 9a 3e
       -0.010659521 0.26450157 -0.052237425 0.30163226

weight f4 [4, 128]
000000 1a 2c a2 be 77 15 4e 3e 89 05 90 3e 0e b7 6b bd
       -0.31674272 0.20125376 0.28129223 -0.05754762
000010 df 9d a1 bb b9 24 f0 3d 69 f3 be 3d 37 1d 80 3e
       -0.00493215 0.11725754 0.093237706 0.2502229
000020 bb cb 1e 3e 42 2c 90 bd 3e 77 b1 3c 0d b2 d1 3d
       0.15507405 -0.070396915 0.021663304 0.102390386
000030 86 5b 95 3d 40 ac 8f 3c aa 5f ff be dc 31 9d bd
       0.07292847 0.01753819 -0.49877673 -0.076755255
000040 5f 2d 82 3e e4 d9 12 bd 56 92 91 3d c3 2e 63 3e
       0.2542524 -0.035852328 0.071079895 0.22185807
000050 17 9f 81 be 2d b2 98 3d 1b 56 56 3d 40 84 86 bd
       -0.25316688 0.07455859 0.05232821 -0.065681934
000060 79 e4 a9 bd a0 e0 60 3b 98 41 56 3e a5 10 48 be
       -0.08295531 0.0034313574 0.2092346 -0.195376
000070 a9 de 54 3e c7 39 ee be 60 70 85 bd 82 e2 ba 3c
       0.20788063 -0.46528456 -0.065155745 0.022813085
000080 08 e8 0f 3d 70 9e 72 3d c6 cd 12 3c 12 5c b7 ba
       0.03513339 0.05923313 0.008960193 -0.0013989231
000090 25 cc d6 bd e6 56 a7 3d 0e 23 f2 3d b8 a6 07 3c
       -0.10488156 0.081708714 0.118230924 0.008279495
0000a0 7e 7d 82 3e d2 5e 47 3d cf f2 8f be fd d5 4a be
       0.25486368 0.048674412 -0.28114936 -0.19808193
0000b0 26 0f 56 3e 33 78 71 bd 24 57 ce 3c 94 d9 c1 bd
       0.20904216 -0.05895252 0.025188036 -0.09465328
0000c0 ec 85 15 3e a4 eb 3d 3e cf 5b 85 3e 26 9e 05 be
       0.14601868 0.18546921 0.26046607 -0.1304861
0000d0 ed 8d 88 3d 87 ac 7f 3d e6 84 10 3e 8e ee 14 3e
       0.06667695 0.062420394 0.14113197 0.14544126
0000e0 59 8a e8 3d cc 52 6d 3d 4d e4 1b bd 5d 14 45 3e
       0.11354513 0.05794029 -0.03805952 0.19246049
0000f0 40 65 87 3e 3c 47 05 3d 16 25 95 be 17 db 99 be
       0.26444435 0.032538638 -0.29129857 -0.30049965
000100 66 22 b2 39 fc a6 51 3d 51 9c 07 3e 7b 9a fe 3d
       0.00033976434 0.05118464 0.13243224 0.124318086
000110 aa 6a 99 3e 19 21 9d be 23 62 ea bc 33 43 4f bd
       0.2996419 -0.30689314 -0.028611248 -0.050601196
000120 55 25 74 3c 5c 9c 25 3e 76 6e 3e bd 90 24 89 3d
       0.014901479 0.16172928 -0.046492063 0.06696427
000130 bb 61 c0 3e 64 d3 66 3d cd b3 f6 3b 65 9e c2 bd
       0.37574562 0.05635394 0.007528758 -0.095028676
000140 f8 f0 8a 3e b7 d1 ed be fc 4c 4f 3e d7 ab 80 3e
       0.2713697 -0.46449062 0.20244211 0.25131103
000150 79 a2 0b 3e b9 c9 69 3d bb e3 18 be 48 c3 a3 bc
       0.13636197 0.057077143 -0.14930622 -0.019990578
000160 54 1c af be f3 e3 f3 bc 07 88 ef 3d 7f 49 96 3e
       -0.342013 -0.02977178 0.11695867 0.29352948
000170 85 2c db 3c 4e c1 d1 3d fd ee c8 bd bb 8f 38 3e
       0.026754627 0.10241948 -0.098112084 0.18023579
000180 e7 4f c4 be 04 6a 8e 3b 34 ef 95 3c e6 1a 9d bd
       -0.3834221 0.004346134 0.018302538 -0.07671146
000190 b1 63 06 3e df f3 16 3d 82 cd 1d 3e 85 b3 87 3e
       0.13123967 0.036853667 0.15410426 0.2650415
0001a0 f7 6c a3 be 5b 7f 9b be ec b0 8c 3e 35 62 20 3d
       -0.3191907 -0.30370602 0.2747873 0.039156158
0001b0 64 23 5a be 26 58 0f 3e a5 c2 01 bd b6 d6 4b be
       -0.21302563 0.1399847 -0.031679768 -0.19906124
0001c0 cf 8d f3 bd 14 01 c5 be 01 c4 2b 3d 28 81 6d 3e
       -0.11892282 -0.38477385 0.04193497 0.231938
0001d0 e8 00 8b 3d 83 f7 51 be b1 7f 49 3e 27 a2 fa bd
       0.06787282 -0.20504574 0.19677617 -0.12237959
0001e0 40 22 03 3d 12 34 fc 3d 9f db 46 be ae d6 b1 3e
       0.032015085 0.12314619 -0.19419716 0.347341
0001f0 88 3c a1 3e 65 4f dd 3d 95 b5 00 3e ca c0 97 3e
       0.31491494 0.10806159 0.12569268 0.29639274
000200 98 21 ec 3c cb 85 ba be c6 a0 8c 3d 1a 0c 4d 3d
       0.028824612 -0.364302 0.068666026 0.05006037
000210 93 48 9d bc 9a 99 92 bd 5e 19 0f bd 1b b6 13 3e
       -0.019199645 -0.071582034 -0.0349363 0.14424936
000220 7a f9 56 3e 83 1c 9f 3d 61 c2 07 3e 89 e1 30 3d
       0.20993605 0.0776911 0.13257743 0.043183837
000230 a0 16 10 3e 67 27 1f bd 09 6c 0b bd fe 75 e1 3d
       0.14071131 -0.038855936 -0.034038577 0.11008833
000240 50 22 61 3a 3d 20 63 3e 89 02 80 3d 40 77 ad bd
       0.0008588182 0.22180267 0.062504835 -0.08470011
000250 a6 36 ae bd 97 f3 45 3d e6 62 2f 3e c6 9b f9 bc
       -0.08506517 0.04832801 0.1712757 -0.030469786
000260 3c a2 21 3d 09 52 4c 3c 2e 4c 11 bf 88 d3 10 be
       0.03946136 0.012470731 -0.56756866 -0.14143193
000270 35 0b cb bd e1 12 0b 3f b9 54 cc be 20 11 26 3d
       -0.09914247 0.5432568 -0.39908388 0.040543675
000280 96 3b ca bb f2 50 90 3d b1 ba 34 ba 14 7e 85 3d
       -0.006171654 0.07046689 -0.0006894274 0.06518188
000290 ad 3e bd 3d bd 90 89 3c 67 f0 1d 3e 05 62 b1 3d
       0.0924047 0.01679265 0.15423737 0.08661274
0002a0 e4 1f 87 3e 64 7f b2 bc f1 28 ad be 8d 83 7a bd
       0.26391518 -0.02178926 -0.33820298 -0.061160613
0002b0 83 42 33 bf 5c a1 ff 3c 61 d0 39 bf c6 cc 09 be
       -0.70023364 0.031204872 -0.72583586 -0.13457021
0002c0 28 08 53 be 14 27 b6 bd 0b e4 a5 3e 26 ef f0 bc
       -0.2060858 -0.08894172 0.32400545 -0.02941091
0002d0 61 bd e5 3d 4b 5d c2 3d cc 57 00 3e 2b 22 ec 3d
       0.11217762 0.094904505 0.12533492 0.115299545
0002e0 bc 63 45 3e 07 83 b4 bd fc 78 c6 bb 0e e9 64 be
       0.19276327 -0.08814054 -0.006056903 -0.22354528
0002f0 05 d2 ed 3d 3d 0c cd 3d ab b4 0e be 4c b3 99 3c
       0.11612324 0.100121 -0.13936107 0.018762253
000300 62 47 32 be f8 00 d6 3d dc d8 81 3d 7e 2f 40 3e
       -0.17410043 0.104494035 0.06340191 0.18768117
000310 0c 9b a4 3d 83 16 93 3e df 64 80 be 4c 53 cf 3d
       0.08037385 0.28728113 -0.2507696 0.101233095
000320 29 b0 c1 3b d1 c0 e3 3c 67 39 2f 3e 85 6b 0f 3d
       0.0059108925 0.027801903 0.17111741 0.035014648
000330 4c 61 87 3e 28 5e 52 3d bd 02 7b 3e a6 bc 42 3e
       0.2644142 0.051359326 0.24512763 0.19017276
000340 81 9d 00 3e 48 0e 1e be 8d c5 fa 3d 2d a8 a6 3d
       0.12560083 -0.15435135 0.12244711 0.08137546
000350 03 5b b3 be fc 6e a0 3d 57 63 c2 bd 2f 6d 9c be
       -0.35030374 0.078336686 -0.09491604 -0.3055205
000360 64 0e 53 3e c8 50 24 3d d2 02 a6 3c 9a 30 f9 3d
       0.20610958 0.0401161 0.020265017 0.12167473
000370 b0 8c 9a 3d 17 11 84 3e 10 54 05 be 5d 04 c3 bd
       0.07546365 0.2579429 -0.13020349 -0.095223166
000380 df 93 c2 bd 4f d0 d8 3d 81 8c f5 be 86 62 bd bd
       -0.095008604 0.10586607 -0.47958758 -0.092473075
000390 0a 0b 06 3e 01 2f 09 3d 40 79 05 bd 9d 72 08 3e
       0.13090149 0.033492092 -0.032586336 0.13324971
0003a0 c9 d7 10 be 37 a0 3d be 4a b9 93 3e 7d 3f 1d be
       -0.14144816 -0.18518148 0.28852302 -0.1535625
0003b0 4d de ca be a7 c2 a0 bd 1b c7 fb bd b3 17 0e be
       -0.39622727 -0.07849627 -0.12293836 -0.13876228
0003c0 62 09 54 bd 04 c4 bf be a0 fd 99 bd af 72 2f 3c
       -0.05176676 -0.37454236 -0.07519078 0.010708495
0003d0 5c 94 40 bd 89 23 88 be 35 3e cd bd ff 68 3d be
       -0.047016487 -0.2658961 -0.10021631 -0.18497084
0003e0 6b 06 3e 3e fd ef e8 3d 20 8f 10 be 62 82 56 3e
       0.18557136 0.11373899 -0.14117098 0.20948175
0003f0 22 36 1b 3e 58 58 a6 3c b0 39 7e be 83 dd 73 3e
       0.15157369 0.020305797 -0.24826694 0.23814969

bias f4 [4]
000000 7b a4 ef bc 8d 71 73 3d f8 88 36 bd 46 0c ba bd
       -0.029253235 0.059434462 -0.044564217 -0.09084372

weight f4 [128, 8]
000000 9d 2b 2e bf c1 a2 61 3a bd 5f 8f bd ee aa 7c bd
       -0.680353 0.0008607321 -0.070006825 -0.06168645
000010 4a 31 56 bf 5c a7 de be de b2 f8 3e db b4 4a 3f
       -0.8366896 -0.4348706 0.48573965 0.79182214
000020 40 f9 cf 3d 94 d4 1e 3e a4 77 b0 be bf 71 0a be
       0.101549625 0.1551078 -0.3446628 -0.13519953
000030 18 7d 4a 3e 10 f7 0c 3f 31 a8 17 3f 4c b6 29 3f
       0.19774282 0.5506449 0.59241015 0.6629379
000040 31 85 12 3e d7 c1 26 c0 e7 83 6e 3e d1 75 c3 be
       0.14308621 -2.605581 0.23292504 -0.38175824
000050 8c 75 c8 bc 15 b5 6d 3e 3f 71 f6 3e 44 37 eb 3e
       -0.024470113 0.23213609 0.48133275 0.45940602
000060 f7 17 ea be 25 80 1a be 51 d6 31 bd 6a d5 05 be
       -0.4572141 -0.15087946 -0.04341728 -0.13069692
000070 1d ce 77 bf d6 5f 16 bf 8d 4e b8 3e 8d 86 2f 3f
       -0.9679888 -0.58739984 0.3599743 0.68564683
000080 a7 95 6d bd 84 58 dc be e9 99 bb 3d d4 a2 d0 be
       -0.058004048 -0.43036282 0.091602154 -0.40749228
000090 72 56 24 3f e4 f7 a3 3e 84 35 17 3f 84 6c 81 3e
       0.64194405 0.32025063 0.59066033 0.25278103
0000a0 d1 80 85 3e f1 cf 6a be 63 71 99 3e 94 30 95 be
       0.26074842 -0.22930886 0.2996932 -0.29138625
0000b0 b9 dc 23 3f d0 50 d3 3e 57 c7 2a 3f 07 24 54 3e
       0.6400867 0.41272593 0.6671042 0.20716868
0000c0 a5 15 2d ba 02 82 26 c0 82 15 9e 3e b8 56 c4 be
       -0.00066026516 -2.601685 0.30875784 -0.3834741
0000d0 6a ac cb be 31 9f 60 bd e6 19 eb 3e 16 8c bf 3e
       -0.3977998 -0.054839317 0.45918196 0.37411565
0000e0 32 2e 1c 3f 10 2b a4 3e 5d 5c 02 3f a9 6d 03 bf
       0.6100799 0.32064104 0.50922185 -0.51339203
0000f0 ec 23 33 3f 54 bc b5 3e fe 5a a1 bf ca 92 11 bf
       0.6997669 0.35495245 -1.2605894 -0.5686461
000100 9c d3 9f 3d 45 de cb bc c1 73 74 be f9 d0 74 be
       0.07804033 -0.02488626 -0.23872282 -0.23907842
000110 94 0a 86 3e 02 b2 af 3e 8d 0d 04 3f 7d 86 98 3e
       0.26179945 0.34315497 0.51583177 0.29790106
000120 3d 3b e9 3c a2 f1 2a 3f be 1d 9a be 02 08 b1 3e
       0.02847063 0.6677495 -0.30100816 0.34576422
000130 eb d6 1a 3e 0d 2c 6c be 8e 6e bd be ac 0f 32 be
       0.15121047 -0.23063679 -0.3699841 -0.17388791
000140 01 d9 80 3f 6b 32 7d 3e 29 05 24 3f 4e bf 88 3e
       1.0066224 0.24726264 0.64070374 0.26708454
000150 80 56 ba 3f b3 0c 3e 3d ae f3 0b 3f 81 d7 8a 3f
       1.4557648 0.04639883 0.546687 1.0847017
000160 65 e9 01 bf 9e 85 31 be 79 86 35 3e af 45 78 3f
       -0.50746757 -0.17336127 0.17727078 0.9698133
000170 d5 7b be bd 05 7b 4a 3e 9e e8 86 3f 49 c4 7c 3f
       -0.09300963 0.1977349 1.0539739 0.9873701
000180 54 8d f4 3d ff ff 9f 3e fc 5c a3 be 84 df a7 bc
       0.11941019 0.31249997 -0.3190688 -0.020492323
000190 e1 a1 9b be e3 0f d7 be 04 d4 a7 bd bc 6f 9f 3e
       -0.3039694 -0.42004308 -0.08194736 0.31139934
0001a0 d1 a0 b8 be fa 60 21 c0 3c db 43 3e 8e fa 77 be
       -0.36060193 -2.521544 0.191266 -0.24216673
0001b0 61 b8 b4 be d4 2e 36 be fa ec 97 3e 61 f7 00 3f
       -0.3529692 -0.17791301 0.29672986 0.5037747
0001c0 1f 4d f6 3e 0d ea f7 bf 9f 3f a8 3d 60 4e 53 3d
       0.48105714 -1.9368302 0.0821526 0.051588416
0001d0 b5 a9 aa 3e 92 d7 1e 3f 12 bb 03 bf cd db 0b bf
       0.333326 0.62047684 -0.5145732 -0.54632264
0001e0 d9 b8 3e be 89 7b 8d 3d e1 23 38 be 5b 43 05 be
       -0.18625201 0.06908328 -0.17982437 -0.13013975
0001f0 74 bd 65 bf 9e 26 ab be bd 9d 5e 3e 14 0e 5b 3f
       -0.8974221 -0.334279 0.2173986 0.85568357
000200 24 ba a4 be 72 b0 57 c0 46 4b e6 3e 84 c4 a2 be
       -0.32173264 -3.3701444 0.44979304 -0.31790555
000210 88 b8 35 be 63 10 e4 bd 90 e3 14 3e 12 c3 24 3e
       -0.17746174 -0.11135938 0.14539933 0.16090038
000220 1d d5 02 3f 1a 6f 5b bd 7f a9 9a 3e b3 e6 94 bd
       0.51106435 -0.05357275 0.3020744 -0.07270565
000230 4d e4 11 3f cd 86 06 3f 8b ab 55 3f bf 7d 16 bf
       0.56988984 0.5254944 0.8346488 -0.58785623
000240 01 5c 1c be d9 35 30 c0 83 e7 8a 3e bf c7 bb be
       -0.15269472 -2.7532866 0.27129754 -0.36675832
000250 06 67 0e be 1e ee 61 3e be f3 a0 3e a1 ec 93 3e
       -0.13906488 0.22063491 0.3143596 0.2889147
000260 03 5d 0f bf 52 5f 45 3e b0 64 c3 3d e7 24 ad be
       -0.560013 0.19274643 0.09540689 -0.33817217
000270 67 b4 1b bf fc 6b 99 be 49 bc 90 be f0 03 5e be
       -0.6082215 -0.29965198 -0.2826865 -0.2168119
000280 00 96 d3 bd 50 03 36 c0 72 ff fe 3d e5 5e b8 be
       -0.103313446 -2.8439522 0.12451066 -0.360099
000290 c7 5b 4e be 39 25 7b bd 3c e2 de 3e ff f9 91 3e
       -0.20152198 -0.061314795 0.43531978 0.28511044
0002a0 31 b3 d6 be 86 5a 2f c0 c0 3f 67 3d e3 0d ae be
       -0.41933587 -2.7399 0.05645728 -0.3399497
0002b0 9c 9a b0 be 0d c1 70 3d 1a e7 62 3e 4f 39 18 3f
       -0.34492958 0.058777858 0.22158471 0.59462446
0002c0 78 d3 d4 bc 7d 7f 36 c0 6b 96 99 3e af 2c cf be
       -0.025979742 -2.8515313 0.29997572 -0.40463778
0002d0 18 bb a7 be 96 b7 68 3e bb 7b 53 3e 5d 8e cf 3e
       -0.3275993 0.22726282 0.20652668 0.40538302
0002e0 1a a9 fe 3c ec 25 46 c0 e7 3c bd bd 81 bb d6 be
       0.031086493 -3.0960646 -0.09240132 -0.4193993
0002f0 f0 07 a1 be 85 ab 5c 3d c2 23 e1 3d 0f 02 e7 3e
       -0.31451368 0.05387451 0.109931484 0.45118758
000300 ea 61 f4 3e 51 35 e7 3e fe 76 9b 3e ec ca 34 be
       0.47730953 0.45157865 0.3036422 -0.17655534
000310 89 34 35 3f a5 68 76 3e ba 1e 47 3f a7 10 a2 bf
       0.7078329 0.24063356 0.7778126 -1.2661332
000320 55 ac b0 be da 2a 1f c0 3a cf 8a 3e 9f 1c 89 be
       -0.3450648 -2.4869905 0.27111226 -0.2677965
000330 9a ce 97 be 1d 77 11 be 55 18 1a 3f ce 58 c6 3e
       -0.29649812 -0.14205594 0.6019338 0.38739628
000340 61 d5 b0 be c1 70 31 c0 48 47 80 3e ae 8c c0 be
       -0.34537795 -2.772507 0.25054383 -0.3760733
000350 be b3 5d be d8 13 b4 3e aa f4 76 3e f3 62 8f 3e
       -0.21650597 0.3517139 0.2411677 0.2800518
000360 da da d0 be 56 ed c5 be 5e ef 26 be a5 8a 19 bf
       -0.4079197 -0.38657635 -0.16302249 -0.5997718
000370 6a 83 3d bf fd 28 fa be 40 cc 8d bf 4f 0c c7 bf
       -0.74028647 -0.48859397 -1.1077957 -1.5550631
000380 eb 97 bf be dc 1c 2c be 13 5b 8a bd 84 71 38 be
       -0.37420592 -0.16807884 -0.06755652 -0.18012053
000390 88 df 7f bf d5 3d 99 be 84 fd 90 3d 6e 4a 4f 3f
       -0.99950457 -0.29929987 0.07079604 0.80972946
0003a0 fc a6 21 bd 54 80 89 be 34 06 87 3d 42 68 37 be
       -0.03946589 -0.2685572 0.0659298 -0.17910865
0003b0 37 a3 ed 3e 58 9c 49 3e 4b 1a cc 3e f6 2a db 3e
       0.46413586 0.19688547 0.3986381 0.42806214
0003c0 d5 97 bd 3e d3 e5 2f 3e b5 7e a0 3d ed a3 23 bf
       0.370299 0.17177515 0.078366674 -0.63922006
0003d0 c2 bd 00 3f f3 81 38 3e 7b b5 9a bf 7b 52 77 bf
       0.5028955 0.18018322 -1.2086633 -0.9661023
0003e0 aa 33 b7 3d 3b a9 39 3e 6b 3e 94 3d 81 20 08 3d
       0.08945401 0.18130963 0.07238468 0.033234123
0003f0 d7 de 12 3f c9 b5 d2 3e fb 95 1b 3f 43 24 27 bf
       0.57371277 0.41154316 0.6077573 -0.65289706

bias f4 [128]
000000 e3 fc 9e bd 3d 53 d9 3e 3a b6 c0 be 35 68 23 3e
       -0.07763078 0.42446318 -0.37639028 0.1595772
000010 f5 9c 89 be bd 89 e8 3c 19 c0 d3 be bc 2c 0c 3e
       -0.2687756 0.028385991 -0.41357496 0.1368894
000020 79 c7 ea 3d e6 97 f8 3e c4 f0 27 3e b5 07 d7 3e
       0.11463828 0.4855339 0.16400439 0.41998067
000030 16 0d 91 3e 6a 80 3f be 0a b0 f1 be 4d 1a 7c be
       0.28330296 -0.1870133 -0.4720462 -0.24619408
000040 1e ce 6f be 8a 36 4d be 50 67 a7 be f9 5c 9c 3e
       -0.23418471 -0.20040336 -0.3269601 0.30539683
000050 d7 51 c0 be 6f b3 a8 be e6 db d9 be de 72 e7 be
       -0.3756244 -0.32949397 -0.42550582 -0.45204824
000060 e2 5e 3c 3e d5 2a 6d be 91 17 85 be ab a5 73 3d
       0.1839557 -0.2316087 -0.25994542 0.059484165
000070 a3 97 fa bd f1 f7 6a bc 8f ce d5 3d 28 7a 35 3e
       -0.12235954 -0.01434134 0.104397886 0.1772238
000080 cf 47 58 bd ed 5b 82 3e e3 2c c7 be aa af c0 be
       -0.052802857 0.2546076 -0.38901433 -0.3763402
000090 1d 97 99 3e 6f 3a 71 3e 25 57 8e 3e 49 89 91 be
       0.29998103 0.23557447 0.2780086 -0.28425053
0000a0 45 c4 65 3e b4 00 22 3c cc 0c 09 bf c6 fb 28 be
       0.22438152 0.009887863 -0.5353515 -0.16502294
0000b0 d3 6a 39 be 4d 1e 06 bf 28 2c f9 bd f4 94 d0 be
       -0.18107156 -0.52389985 -0.12166625 -0.40738642
0000c0 66 e2 b1 be 5d 10 0e bf 11 a8 b1 be b5 a7 20 be
       -0.3474304 -0.5549372 -0.34698537 -0.15688975
0000d0 65 8d 29 3e 98 e4 0d 3e f5 86 de 3e 95 71 02 bf
       0.16557844 0.13856733 0.4346234 -0.5095456
0000e0 cd 98 b2 be 4a 20 09 bf cb c3 f9 be 71 30 47 3d
       -0.34882203 -0.53564894 -0.4878219 0.04863018
0000f0 c2 bd b7 be 85 25 73 3d df 01 f5 be 9e d3 7c bd
       -0.3588696 0.059361953 -0.4785299 -0.06172525
000100 13 2c 1a be bf 61 80 3e 5e b9 46 3e 59 c9 ef be
       -0.15055875 0.25074574 0.1940665 -0.46833304
000110 48 e8 83 be ab 0e 17 3c 8f 11 8a 3e a1 a3 d0 3d
       -0.25763154 0.009219806 0.2696652 0.1018746
000120 72 8e 9a 3e a3 d0 6e be 80 db 72 bd 6a 6d 0b bf
       0.30186802 -0.23321776 -0.059291363 -0.5446383
000130 4f 52 88 be 7e af 74 be 8d 7b ed 3d 64 35 b3 3e
       -0.26625296 -0.2389507 0.11595831 0.3500167
000140 19 fe de be 7f a9 fb 3d af 5a 1d be 87 f2 dc bc
       -0.43553236 0.12288188 -0.15366624 -0.026971115
000150 60 b4 8e be 44 b8 e1 3e 9e 89 f9 be dc 4c 25 be
       -0.2787199 0.44085896 -0.48737806 -0.16142601
000160 82 96 9d 3d 66 21 f9 38 35 b3 18 bf ce e7 3a 3e
       0.07694723 0.00011879466 -0.5964845 0.18252489
000170 6b 2b 12 be 8d 4e d0 be 94 73 ee 3e de 8f 31 be
       -0.14274375 -0.4068493 0.46572554 -0.17340037
000180 4a c6 3b 3d 40 17 88 3c 6d a0 c2 be eb 99 2e 3e
       0.0458434 0.016612649 -0.3801302 0.17050903
000190 51 a1 0f be 42 e2 74 bd b5 4b e5 bc 44 51 1d 3d
       -0.14026381 -0.05978609 -0.027990201 0.03840758
0001a0 7b 8e 8d 3e 29 2f d7 3d b0 26 0d 3f 7a bd 88 3c
       0.27647766 0.10507042 0.5513716 0.016691912
0001b0 c9 d4 f6 3d 36 d7 4d 3e 2e ee a4 3d 40 ee 93 3e
       0.12052304 0.20101628 0.08053242 0.28892708
0001c0 6e c7 2d 3d e4 3f 99 3e 30 42 d3 be ae d3 c2 3e
       0.04242652 0.29931557 -0.41261435 0.38052124
0001d0 dd 68 41 be 15 d2 8d be 17 f5 08 3e bd 29 9f be
       -0.18887658 -0.27699342 0.13374744 -0.3108653
0001e0 dc cc aa 3e aa 71 f0 be 8d 9f 86 3e a6 ff 69 3e
       0.3335942 -0.4696172 0.26293603 0.22851428
0001f0 82 df 7d be bf ed e1 be 37 84 5a 3e df ee 46 3e
       -0.24792293 -0.44126698 0.21339498 0.1942706

weight f4 [1, 128]
000000 2f e9 ef be c6 5c 80 be b6 34 34 bf 04 1e eb be
       -0.46857592 -0.2507078 -0.7039293 -0.45921338
000010 06 0f b7 be 19 86 e1 be 20 7b 52 bf 85 fc 0f 3f
       -0.3575365 -0.4404762 -0.82219124 0.5624469
000020 6c 95 82 be bb e0 ec be e6 6c 9a 3f 78 b7 a2 3f
       -0.25504625 -0.46265206 1.2064483 1.271224
000030 03 e5 04 be 08 93 33 bf ad 1d 79 bf b8 58 41 bf
       -0.12977986 -0.70146227 -0.97310907 -0.75526
000040 78 6b b8 bf 6f 62 25 bf 52 4b 83 bf a3 47 2a be
       -1.4407797 -0.6460332 -1.0257361 -0.1662889
000050 7d 70 7a bf 92 48 4e bf 43 97 6d bf f6 53 8a bf
       -0.97827893 -0.80579484 -0.9280893 -1.0806873
000060 9f b2 47 bf 86 f5 3f bf cb f8 6c bf 46 72 43 3f
       -0.7800693 -0.74984014 -0.9256713 0.7634624
000070 4f 98 14 bf c2 a0 8d be 14 c7 31 3f d7 93 d3 be
       -0.58044904 -0.2766171 0.69444394 -0.4132373
000080 d2 9f 5a 3f 2d 56 a4 3f 54 dd 07 bf 0a 98 9a bf
       0.85400116 1.2838799 -0.53072095 -1.2077649
000090 42 ab d8 be b3 79 62 bf fc 5f 8a be 7a ca 45 bf
       -0.4231816 -0.8846695 -0.27026355 -0.7726208
0000a0 60 37 0a be ba 2e 21 bf 0c b8 7f bf 9c c7 0b bf
       -0.13497686 -0.62961924 -0.9989021 -0.54601455
0000b0 5c 01 17 bf df 46 55 bf a2 01 97 be 1a 9e 64 bf
       -0.5898645 -0.83311266 -0.29493433 -0.89303744
0000c0 61 bb 34 bf e0 b7 5d bf 92 7e 6d bf 06 e9 f3 be
       -0.7059842 -0.86608696 -0.92771256 -0.4763872
0000d0 c8 4e c9 be 63 30 2f 3f 14 96 2c bf 11 ab 85 bf
       -0.39317918 0.6843321 -0.674165 -1.044283
0000e0 74 4c 56 bf 69 7f a9 bf fd a6 27 bf ae d7 13 bf
       -0.8371041 -1.3242007 -0.6548918 -0.57750976
0000f0 20 3e 80 bf df e9 ca be ee e9 86 bf 88 e6 f3 be
       -1.0018959 -0.39631554 -1.054014 -0.4763682
000100 38 78 15 bf 00 bd 38 3f e1 5d ae be ae 9c 89 bf
       -0.58386564 0.7216339 -0.34056 -1.075094
000110 76 50 5c bf 7d 5c 90 be c9 c3 23 3f a9 1a 7e be
       -0.86060274 -0.28195563 0.6397062 -0.24814858
000120 07 35 af 3e 94 b3 3f bf 4d 35 d8 be b8 3e 50 bf
       0.34220144 -0.7488339 -0.42228165 -0.813457
000130 fb 65 80 bf d7 95 83 be 9e 42 5d 3f 85 ca c6 be
       -1.0031122 -0.25700256 0.86429775 -0.38826385
000140 31 cc 43 bf 45 9e d4 3f d7 c5 5d 3f 09 c0 30 bf
       -0.76483446 1.66108 0.86630005 -0.6904302
000150 bb 95 4c 3f 97 13 a5 be e5 19 8f bf 9c 42 c5 be
       0.7991597 -0.32241508 -1.1179777 -0.3852738
000160 10 4d 8d be 6f 12 c9 be 4a d7 6e bf e3 78 05 bf
       -0.27597857 -0.39271876 -0.93297255 -0.52137583
000170 de 3c 8a 3f 9f bb 80 bf 50 93 0e 3f 3c 66 ee be
       1.0799825 -1.0057257 0.5569353 -0.46562374
000180 55 0d 18 bf 60 44 c4 bf 24 b7 2d bf 25 8c 08 3f
       -0.59395343 -1.5333366 -0.67857575 0.53338844
000190 34 8e 51 3d 6d 29 5b bf 5c da 65 3f f1 47 96 be
       0.051161006 -0.85610086 0.89786315 -0.29351762
0001a0 60 cd 87 be 36 53 f8 be 9a 89 0c 3f 64 d0 59 be
       -0.26523876 -0.48500985 0.54897463 -0.21270901
0001b0 b1 01 40 3f 67 73 b9 be 7a 58 98 be 40 20 9a be
       0.7500258 -0.36220858 -0.29755002 -0.3010273
0001c0 eb 89 82 bf d7 8a b7 be 11 06 32 bf 2f d5 a8 3f
       -1.0198339 -0.35848114 -0.69540507 1.3190058
0001d0 07 6a d3 bf 2b c8 ac bf 4c 26 ef 3e 2a af 58 bf
       -1.6516732 -1.3498586 0.46708906 -0.8464228
0001e0 2d 89 2c 3f dd c5 67 bf 9c db b2 be 70 34 67 be
       0.67396814 -0.9053629 -0.34933174 -0.22578597
0001f0 98 ce 3e bf d8 28 97 bf 5c 52 c9 bf fa f3 9d 3f
       -0.7453399 -1.180934 -1.5728259 1.2340081
