ppo_2.pt (torch, 17128 bytes, 7 tensors)

weight f4 [128, 8]
0	0xbf1b77d7	-0.60729736
1	0x3ed93af7	0.424278
2	0xbe11fc9c	-0.14256519
3	0xbe94080e	-0.28912395
4	0xbf4de7a7	-0.804316
5	0xbf11a2a8	-0.5688882
6	0xbe52d1f8	-0.20587909
7	0xbde93a4d	-0.11388073
8	0xbe8f0171	-0.27930787
9	0x3df79095	0.12088124
10	0xbf99ad0d	-1.2005936
11	0x3fc0fd1c	1.5077243
12	0xbf072cf6	-0.5280298
13	0xbf343b72	-0.70403206
14	0x3e31e2f7	0.17371736
15	0x3eb2cd1d	0.34922114
16	0x3f0583b5	0.52154094
17	0xbd75d099	-0.060013387
18	0x3d9e9d7b	0.07744881
19	0x3e8d6a21	0.27620032
20	0x3f1ffb8a	0.62493193
21	0x3ecc1f03	0.3986741
22	0xbeab30d4	-0.3343569
23	0xbf6f149a	-0.9339081
24	0xbf2e3a67	-0.68057865
25	0xbe57e528	-0.2108351
26	0xbec0e232	-0.37672573
27	0x3e6826c3	0.22671036
28	0x3f173f25	0.59080726
29	0xbf11afaa	-0.5690867
30	0x3da67ed6	0.08129661
31	0x3eb90d1f	0.36142823
32	0x3f390434	0.7227204
33	0x3eaf7eee	0.34276527
34	0x3e53b1e7	0.20673333
35	0xbf17fd33	-0.59370726
36	0x3bf7986c	0.007556012
37	0x3e39be6c	0.18139046
38	0x3d17656d	0.03696196
39	0xbe83e966	-0.25764006
40	0x3ea98fc5	0.331175
41	0xbd8a8d12	-0.06765188
42	0x3e436e2f	0.19085
43	0x3e7d8799	0.24758758
44	0x3ed945c1	0.4243603
45	0x3ea9ef05	0.3319017
46	0xbe39610a	-0.18103424
47	0x3e4d1252	0.2002652
48	0x3f09cbfa	0.5382687
49	0xc0045ec6	-2.0682845
50	0xbe668e57	-0.22515236
51	0x3de32bc7	0.11092334
52	0x3e1cc065	0.15307768
53	0x3ce75f2f	0.02824363
54	0xbd9012f2	-0.070348635
55	0xbec84f41	-0.39122966
56	0x3ee7378a	0.4515956
57	0x3eb309c0	0.34968376
58	0x3dd4b811	0.103866704
59	0x3e525fbc	0.20544332
60	0x3e2eb999	0.17062987
61	0x3eb10564	0.34574425
62	0x3f1c873f	0.6114387
63	0xbe8e099c	-0.27741706
64	0x3c2dc7ce	0.010606719
65	0x3e470792	0.19436482
66	0x3e6fb670	0.23409438
67	0x3f02d3de	0.51104534
68	0x3e67f6e6	0.22652778
69	0xbf469f80	-0.7758713
70	0x3e98671a	0.2976616
71	0x3db54395	0.08850781
72	0xbe3480a2	-0.17627195
73	0xc001ef1b	-2.0302188
74	0xbf391cfa	-0.7230984
75	0x3e94ae64	0.290393
76	0x3ed91d8c	0.42405355
77	0x3f15f5f9	0.5857845
78	0x3cb70b23	0.022344178
79	0x3e2106af	0.15725206
80	0xbec9dd72	-0.39426762
81	0xbe8a2e81	-0.26988605
82	0x3f1df8d8	0.6170783
83	0x3da114fc	0.078653306
84	0xbf950245	-1.1641318
85	0x3d922c34	0.07137337
86	0xbf0c6d98	-0.54854727
87	0x3ea2f046	0.3182394
88	0x3f097e97	0.53708786
89	0x3e3a191a	0.18173638
90	0xbc667e99	-0.014068269
91	0xbeb7448e	-0.3579449
92	0x3e1fbbdf	0.15599011
93	0x3f0bdfd9	0.5463844
94	0x3e6ee11b	0.23328058
95	0x3d8a2e46	0.06747107
96	0x3cf9da84	0.030499704
97	0x3e5adf9d	0.21374364
98	0x3f6581d8	0.8965125
99	0x3e90a60b	0.2825168
100	0x3e9f040d	0.31057778
101	0x3eaf82d6	0.34279507
102	0xbe95a63b	-0.29228386
103	0xbe2d60c1	-0.1693144
104	0x3dbc3b3c	0.091909856
105	0xc034a29c	-2.822425
106	0x3b56c1cc	0.003276932
107	0xbdbd5050	-0.09243834
108	0x3ea72b15	0.32650056
109	0x3e0033d3	0.1251977
110	0xbea4cda3	-0.32188138
111	0x3e9b8abb	0.3037928
112	0xbf6449e4	-0.8917525
113	0x3e25bd2e	0.16185448
114	0xbee77fac	-0.45214593
115	0xbee2388a	-0.4418376
116	0xbf1f873a	-0.62315714
117	0xbecb2ee8	-0.39684224
118	0xbf0fb3cc	-0.56133723
119	0xbf5ab2eb	-0.8542926
120	0xbf072adf	-0.5279979
121	0x3ea5aa9d	0.3235673
122	0x3f1341f8	0.57522535
123	0xbea01b58	-0.31270862
124	0xbf66aa82	-0.90103924
125	0xbed36d52	-0.41294342
126	0x3e3bbfb5	0.18334849
127	0x3dda34d3	0.10654607
128	0x3f4296bc	0.7601125
129	0x3e701c37	0.23448263
130	0xbd3142ed	-0.043276716
131	0xbb7420b4	-0.0037250938
132	0x3f16abf5	0.58856136
133	0x3ee927b3	0.455381
134	0x3f12a3f9	0.5728145
135	0xbe987c2b	-0.29782233
136	0xbebf3691	-0.37346318
137	0xbdb88049	-0.090088435
138	0x3f04837d	0.51763135
139	0xbde9f4ec	-0.11423668
140	0xbf996560	-1.1984062
141	0xbe261013	-0.1621707
142	0xbd81b5d1	-0.06333507
143	0x3e898638	0.26860213
144	0x3f0d015a	0.5508019
145	0x3da7e98f	0.08198845
146	0xbf8579ef	-1.0427836
147	0x3e36f40c	0.17866534
148	0x3ee67d89	0.4501765
149	0xbf30c51f	-0.6905078
150	0x3e42aa2f	0.19010232
151	0x3e6a5ce3	0.22886996
152	0x3d8de809	0.06929023
153	0xbeee2501	-0.46512607
154	0x3e8534b9	0.26016787
155	0xbe1bfdf8	-0.152336
156	0xbeb6d9b7	-0.35712978
157	0xbe06650f	-0.13124488
158	0x3eba06b6	0.36333245
159	0x3ee91747	0.45525572
160	0xbfb58a10	-1.4182758
161	0x3df96e98	0.12179297
162	0xbee66a7e	-0.45003122
163	0xbef004ac	-0.46878564
164	0xbf00a76b	-0.5025546
165	0xbef69644	-0.4816152
166	0xbe70cf97	-0.23516689
167	0xbf2b6bc1	-0.66961294
168	0x3e57c2a1	0.21070339
169	0xbfb61456	-1.4224956
170	0xbe1a3167	-0.15057908
171	0x3e00904c	0.12555045
172	0x3ef2a1a3	0.47388944
173	0x3c29d715	0.010366221
174	0xbe95362a	-0.29142886
175	0xbd94fb41	-0.072744854
176	0x3e86106e	0.2618441
177	0xbdfec115	-0.12439171
178	0xbe579c17	-0.21055637
179	0x3d7a125d	0.06105267
180	0xbfd52179	-1.665084
181	0x3e289eb7	0.16466795
182	0x3dc94d17	0.09829157
183	0xbecdf43f	-0.40225407
184	0xbdecf3fb	-0.11569973
185	0x3e87a63f	0.26494023
186	0xbe36fe35	-0.1787041
187	0xbebdfb66	-0.37105864
188	0x3e3ce5ed	0.18447085
189	0xbd0d4cb2	-0.03449697
190	0xbd9b838b	-0.07593449
191	0xba42da23	-0.00074330176
192	0x3e863772	0.26214176
193	0x3eabbf40	0.3354435
194	0x3e01001c	0.12597698
195	0xbf256c8b	-0.6461875
196	0xbdb4507f	-0.08804416
197	0x3e395f91	0.18102862
198	0xbe40c88d	-0.18826504
199	0xbe400a12	-0.18753842
200	0xbeadce81	-0.33946612
201	0xbed3e81e	-0.4138803
202	0x3b3bb68b	0.002864274
203	0xbd90b25f	-0.070652716
204	0x3f073156	0.52809656
205	0x3e96b460	0.2943449
206	0xbed9f324	-0.42568314
207	0x3e63d420	0.22248888
208	0xbec5ec13	-0.38656673
209	0x3e602d63	0.21892314
210	0xbff363e5	-1.901486
211	0x3f3177bd	0.6932333
212	0xbdffd9c0	-0.124927044
213	0xbe1da4cb	-0.15394895
214	0xbe80895a	-0.2510479
215	0x3e8a5ab3	0.27022323
216	0xbf0a1a02	-0.53945935
217	0xbf019d11	-0.5063029
218	0xbfaf3777	-1.3688802
219	0xbed22b0f	-0.41048476
220	0x3ee956ac	0.45573938
221	0x3ea85f52	0.32885224
222	0xbe5caaa7	-0.21549474
223	0x3e72ba63	0.23703913
224	0x3f0cc979	0.5499492
225	0xbf782cfb	-0.96943635
226	0xbe69e2c2	-0.22840407
227	0x3c4271d8	0.011867963
228	0xbf1349db	-0.5753457
229	0x3e3f3e81	0.18676187
230	0x3eb47a53	0.35249576
231	0xbe8ed215	-0.27894655
232	0x3ea70558	0.32621264
233	0x3dbe45ed	0.09290681
234	0x3d47f3ef	0.048816618
235	0xbec3b18c	-0.38221395
236	0xc00d839f	-2.2111585
237	0xbe9681d9	-0.2939594
238	0xbf2638a6	-0.6493019
239	0xbeee99ff	-0.46601865
240	0x3e486057	0.19568
241	0xbc383fc2	-0.01124567
242	0x3e65872e	0.22414848
243	0xbf0c17a5	-0.5472358
244	0x3f50660f	0.8140573
245	0x3d5de396	0.05417212
246	0x3d6a0496	0.05713328
247	0xbe9159c2	-0.28388792
248	0x3ec25b3b	0.37960228
249	0xbf0f60ff	-0.5600738
250	0xbf2c5477	-0.67316383
251	0xbc35c42a	-0.011094132
252	0xbebc6de8	-0.36802602
253	0xbe09ff51	-0.13476302
254	0x3e65c7e9	0.22439541
255	0x3e10c03b	0.1413583

bias f4 [128]
0	0x3e2b676c	0.16738671
1	0xbe28d640	-0.1648798
2	0x3d92a134	0.07159653
3	0x3e7e85f0	0.2485578
4	0x3da90bca	0.08254202
5	0x3ee50266	0.44728392
6	0x3ed934ce	0.424231
7	0xbcb11e9e	-0.021621045
8	0x3d81992a	0.06328042
9	0x3b9ea3dc	0.004841311
10	0x3ee58fed	0.4483637
11	0xbe0f30d4	-0.1398347
12	0xbd01ebd1	-0.031719033
13	0x3d4138cb	0.047173303
14	0x3eb1b784	0.34710324
15	0x3de20b50	0.11037314
16	0xbe49f71e	-0.19723174
17	0x3e845f80	0.2585411
18	0xbe5f633d	-0.218152
19	0xbe1d68bc	-0.15371984
20	0x3ee1a18e	0.4406857
21	0x3e8f3e5f	0.27977273
22	0x3e4e3704	0.20138174
23	0xbddb606e	-0.10711752
24	0x3ed782a4	0.42091858
25	0xbee763e7	-0.45193407
26	0xbe628563	-0.22121195
27	0x3ea436ae	0.32072967
28	0xbc93357c	-0.01796984
29	0xbed1b1b9	-0.40955904
30	0xbe40ec4d	-0.18840142
31	0xbdc3e676	-0.09565441
32	0xbee7ac41	-0.45248607
33	0xbddcc9d3	-0.107806824
34	0xbe741007	-0.23834239
35	0x3d84df0f	0.064878576
36	0x3d93734d	0.07199726
37	0x3db9f430	0.09079778
38	0x3ea4d862	0.32196337
39	0x3dac564a	0.08414896
40	0xbc2f6756	-0.01070579
41	0x3ec25180	0.37952805
42	0xbde96486	-0.113961264
43	0x3cbc69cd	0.022999668
44	0x3e1d05dd	0.15334268
45	0x3e276ac8	0.16349328
46	0x3dc8094c	0.09767398
47	0xbd8c445f	-0.06848978
48	0xbdeeefe4	-0.11666849
49	0x3e6d6993	0.23184805
50	0x3f1f6e35	0.6227754
51	0xbd37b2ae	-0.044848137
52	0x3ca7eaef	0.020497767
53	0xbee8dce4	-0.45481026
54	0xbd1b37af	-0.0378949
55	0xbe3d4f9f	-0.18487404
56	0x3eca4016	0.3950202
57	0xbefa20d2	-0.48853165
58	0x3ec2eec3	0.38072786
59	0xbe0226a3	-0.12710051
60	0x3c8219b4	0.015881397
61	0xbe189726	-0.14901409
62	0x3f03fdef	0.51559347
63	0xbe98a708	-0.29814935
64	0xbe575297	-0.210276
65	0xbd18a427	-0.037265923
66	0xbd316a98	-0.043314546
67	0x3e92a73d	0.28643218
68	0xbe86b46a	-0.2630952
69	0xbe926b7c	-0.2859763
70	0xbe47b620	-0.19503069
71	0x3e5744ee	0.21022388
72	0xbacb15a5	-0.0015494121
73	0x3e194b4a	0.14970127
74	0xbe50a18c	-0.20374125
75	0xbed72391	-0.42019323
76	0x3ebc55c3	0.3678418
77	0xbd9ac94d	-0.07557926
78	0x3d27df92	0.040984698
79	0xbecdfa8f	-0.40230224
80	0x3eca920f	0.3956456
81	0x3e1f1a58	0.15537393
82	0xbe9ff22d	-0.31239453
83	0x3d5a1c32	0.053249545
84	0xbe7a5841	-0.24447729
85	0xbe41f3d1	-0.18940665
86	0x3ebdd580	0.3707695
87	0xbd8e1280	-0.06937122
88	0x3e96d935	0.2946259
89	0x3e5a40ee	0.21313831
90	0x3e6aba54	0.22922641
91	0x3d947354	0.072485596
92	0xbe7a3b81	-0.24436761
93	0xbe83bf19	-0.25731733
94	0x3e21477d	0.15749927
95	0xbe86501b	-0.2623299
96	0x3e9c15d8	0.30485415
97	0xbdbfd297	-0.09366339
98	0xbe50288e	-0.2032797
99	0x3de9f16d	0.114230014
100	0x3d3eec85	0.04661228
101	0xbd20d76b	-0.03926794
102	0xbe163ad8	-0.14670885
103	0xbd87f298	-0.06638068
104	0xbf2cb85a	-0.674688
105	0xbdf7f6d3	-0.12107625
106	0x3eb0bb29	0.34517792
107	0x3dea8102	0.114503875
108	0x3e8ea709	0.27861813
109	0xbea02c98	-0.31284022
110	0xbdaee1af	-0.085391395
111	0x3d84e6ad	0.064893104
112	0xbe79d453	-0.24397402
113	0xbd5252c2	-0.051348455
114	0x3e9d08c2	0.30670744
115	0x3dc4f02a	0.0961612
116	0x3e8e2129	0.27759674
117	0x3dbeba57	0.09312885
118	0xbdbbadb0	-0.09163988
119	0xbd084fa9	-0.033279095
120	0x3d898388	0.06714541
121	0xbd9aaf12	-0.07552923
122	0x3e88fe3a	0.2675646
123	0xbe1c0e2d	-0.15239783
124	0xbcbb6039	-0.022873031
125	0x3edd8c52	0.43271118
126	0xbe624588	-0.22096837
127	0x3ed96ac0	0.42464256

weight f4 [4, 128]
0	0xbeddc77f	-0.43316266
1	0xbe902f6d	-0.28161183
2	0x3b3294c9	0.0027249327
3	0x3e103a89	0.1408483
4	0x3e2651c4	0.16242129
5	0x3d842248	0.06451851
6	0x3e4e42b8	0.20142639
7	0x3e80e041	0.25171092
8	0xbe1ea23c	-0.15491575
9	0xbe677e8b	-0.22606866
10	0xbf1de119	-0.61671597
11	0x3d80dc91	0.0629207
12	0x3de76b2e	0.1129974
13	0x3c8b17b2	0.016979072
14	0xbf4effab	-0.8085887
15	0xbe8ededd	-0.27904406
16	0x3e8eb962	0.2787581
17	0xbed2ca48	-0.41169953
18	0xbe2d813e	-0.16943833
19	0x3e4eaae5	0.20182379
20	0xbed9b602	-0.42521673
21	0x3d760d2a	0.060071148
22	0xbea163f6	-0.31521577
23	0x3d14a815	0.036293108
24	0x3c8a2277	0.016862137
25	0xbe1bb161	-0.15204383
26	0xbf7d3cf6	-0.98921144
27	0xbead8313	-0.33889064
28	0x3cf604ee	0.030031648
29	0xbe6bbaaa	-0.23020425
30	0xbc751914	-0.014959592
31	0x3eab6104	0.33472455
32	0x3df2a014	0.11846939
33	0x3de70ac8	0.11281353
34	0xbd17cf1e	-0.037062757
35	0x3e1983e1	0.14991714
36	0xbe9e57cb	-0.30926356
37	0xbea4db51	-0.32198575
38	0xbd745658	-0.059652656
39	0xbe2afe1b	-0.16698496
40	0x3e951874	0.2912022
41	0x3e91fe3a	0.28514272
42	0xbf0e4712	-0.55577195
43	0xbe8069d6	-0.25080746
44	0x3c901fad	0.01759323
45	0xbf16128e	-0.5862206
46	0xbed1e3e0	-0.40994167
47	0xbe898e78	-0.26866508
48	0xbf78a1ed	-0.9712208
49	0xbddf7ae8	-0.109121144
50	0x3e821a9d	0.2541093
51	0xbef21efa	-0.47289258
52	0xbe945a04	-0.28974926
53	0x3d91490b	0.0709401
54	0xbde01d59	-0.109430976
55	0x3e7d6c92	0.24748448
56	0x3e36b925	0.17844065
57	0xbbdc1cf4	-0.0067173187
58	0x3e3f262c	0.18666905
59	0x3ecf3d93	0.40476665
60	0xc00d8179	-2.2110274
61	0xbe7999f8	-0.2437514
62	0xbeb7b871	-0.35882905
63	0xbea75b2a	-0.3268674
64	0xbf087232	-0.5329925
65	0x3e7f3c90	0.24925447
66	0x3cbffeee	0.02343699
67	0xbeb5ce34	-0.35508883
68	0x3e5cdfc5	0.21569736
69	0xbd81d4b8	-0.06339401
70	0x3c1b523c	0.009480055
71	0xbeb57962	-0.3544417
72	0x3c29223e	0.010323105
73	0x3e067b6b	0.13133018
74	0xbf1dd063	-0.616461
75	0x3e1e4b6b	0.15458457
76	0x3ecdfadc	0.40230453
77	0xbe35fcc6	-0.17772207
78	0xbf5244a2	-0.82135975
79	0x3e03e787	0.1288129
80	0x3e6f56fa	0.23373023
81	0xbfb28a54	-1.3948464
82	0x3e223b0b	0.15842836
83	0xbf7c4a41	-0.985508
84	0xbe1a79a4	-0.15085465
85	0x3c8c1e8f	0.017104415
86	0xbeae6c88	-0.34067178
87	0xbded5127	-0.11587744
88	0xbf9ab348	-1.2085962
89	0xbdb7131a	-0.0893919
90	0xbf42c8b1	-0.7608748
91	0x3e9a8d96	0.30186146
92	0x3f131da1	0.57467085
93	0x3e560325	0.20899637
94	0xbf43d44a	-0.764958
95	0x3ece3c42	0.40280348
96	0xbd854db9	-0.06508965
97	0x3db509ac	0.088397354
98	0xbbb36b99	-0.005475473
99	0xbe3faf18	-0.18719137
100	0x3e61ac80	0.2203846
101	0xbe269cc3	-0.16270737
102	0x3dd75829	0.10514862
103	0xbff5b196	-1.919482
104	0xbf005043	-0.5012247
105	0xbe70c6fa	-0.23513404
106	0x3e8a5a72	0.2702213
107	0x3cc2ccef	0.02377936
108	0xbefba7ea	-0.49151546
109	0xbd848411	-0.06470502
110	0xbfd7a0a1	-1.6845895
111	0xbe22c61d	-0.15895887
112	0xbb718de6	-0.003685826
113	0xbf4d6fa8	-0.802485
114	0x3d1e39e6	0.038629435
115	0x3d236ac5	0.039896745
116	0x3e0aaf2f	0.1354339
117	0xbecf3347	-0.4046881
118	0x3e95a14b	0.2922462
119	0xbe0a0dea	-0.1348187
120	0xbe8f4dce	-0.27989048
121	0xbe07db84	-0.13267332
122	0xbe854b69	-0.26034096
123	0x3ed84459	0.42239645
124	0xbfaf5d91	-1.3700429
125	0x3e3a608d	0.18200894
126	0xbce40b02	-0.02783728
127	0x3e967a74	0.293903
128	0xbdf80047	-0.12109428
129	0xbfb5bad9	-1.4197646
130	0x3eb29777	0.34881184
131	0x3e7c380f	0.2463076
132	0x3db1935b	0.08670684
133	0x3d8ac43e	0.067757115
134	0xbdc48aaf	-0.09596764
135	0x3e44931c	0.19196743
136	0x3ea45d9b	0.32102665
137	0x3d60a7ee	0.05484765
138	0xbddd8a19	-0.10817356
139	0x3e36805a	0.178224
140	0x3e4f24e3	0.20228915
141	0xbdb88bf8	-0.09011072
142	0xbe7f669a	-0.24941483
143	0xbd08999b	-0.033349615
144	0x3e09402e	0.13403389
145	0xb9db4680	-0.00041823462
146	0x3e9a302d	0.3011488
147	0xbd5b0627	-0.053472664
148	0xbe5c612e	-0.21521446
149	0xbd0bce68	-0.03413239
150	0x3e6eba0e	0.23313162
151	0x3d491665	0.049093623
152	0x3da58c8b	0.08083447
153	0x3b2c2f4c	0.0026273308
154	0xc003c6b9	-2.059004
155	0xbe0bdd69	-0.1365868
156	0xbd935136	-0.07193224
157	0x3ee6f855	0.45111337
158	0xbf128698	-0.57236624
159	0xbdaf159c	-0.085490435
160	0x3cf5fffd	0.030029291
161	0x3d702d73	0.058637094
162	0x3cc8523f	0.02445328
163	0xbc5f8fdf	-0.013645141
164	0x3e0868f5	0.13321288
165	0x3da27bdb	0.0793378
166	0x3e4802b7	0.19532286
167	0x3e342b9c	0.1759476
168	0x3e8639ab	0.26215872
169	0xbd257be8	-0.04040137
170	0xbee076aa	-0.43840533
171	0xbd4c07bb	-0.04981206
172	0xbf8e77a1	-1.1130258
173	0xbd2586ce	-0.040411763
174	0xbfea5cb6	-1.8309543
175	0xbe78b24b	-0.24286763
176	0xbff1fb68	-1.8904848
177	0x3d598d23	0.053113114
178	0x3ea27c7a	0.31735593
179	0xbe51eaed	-0.20499773
180	0xbdd052c1	-0.10172034
181	0x3e17eced	0.14836474
182	0x3e03db26	0.12876567
183	0x3df7f3a7	0.1210702
184	0x3e2c1f49	0.1680881
185	0xbdf00036	-0.1171879
186	0xbe0e40c1	-0.13891889
187	0xbf0fca07	-0.56167644
188	0x3de112a2	0.10989882
189	0x3e22ad7d	0.15886493
190	0xbe56c124	-0.20972115
191	0xbe33c74e	-0.17556497
192	0xbe84d8b1	-0.25946572
193	0x3e26f1be	0.16303155
194	0xbb0be706	-0.0021347417
195	0x3ce8250e	0.028337982
196	0x3e59d893	0.21274023
197	0x3da8f540	0.08249903
198	0xbeb062f4	-0.34450495
199	0x3ca3b432	0.019983385
200	0x3c60a1e1	0.01371047
201	0x3dd6623c	0.104679555
202	0x3d89de69	0.067318745
203	0x3e8020ba	0.25024968
204	0x3e9d3f37	0.30712292
205	0x3ea39802	0.3195191
206	0x3e169c1c	0.14707989
207	0x3e66bf00	0.22533798
208	0x3e3af586	0.18257722
209	0xbe67e0fd	-0.2264442
210	0x3e93fb1d	0.28902522
211	0xbe1df850	-0.15426755
212	0xbfaf00a3	-1.3672069
213	0x3def81ba	0.11694665
214	0xbe1fc4d4	-0.15602428
215	0xbf736073	-0.95069045
216	0x3e085abc	0.13315862
217	0xbdab85cc	-0.08375129
218	0xbd855fa7	-0.06512385
219	0x3e60660a	0.21913925
220	0xbce866ec	-0.02836939
221	0x3e82aa8a	0.25520736
222	0xbeb5bb0a	-0.35494262
223	0xbdb43c09	-0.08800513
224	0xbe007850	-0.12545896
225	0x3e0e58ea	0.13901106
226	0xbf6417fc	-0.890991
227	0xbe0de864	-0.13858181
228	0x3e23bc6c	0.15989846
229	0x3ed0603e	0.40698427
230	0xbd1ec2b0	-0.038759887
231	0x3dddc14e	0.108278856
232	0xbebdf8b3	-0.37103805
233	0xbf1656da	-0.58726275
234	0x3e97da5a	0.29658777
235	0xbdb6c724	-0.08924702
236	0xbf045b38	-0.5170169
237	0xbdf967ec	-0.12178025
238	0xbf1c086b	-0.60950345
239	0xbe6a4e21	-0.22881366
240	0x3da3247d	0.07965944
241	0xbf091ebd	-0.5356253
242	0xbe13a187	-0.14417087
243	0x3bf15e13	0.007365951
244	0xbdc0a979	-0.09407324
245	0xbe9bfe93	-0.30467662
246	0x3dd82fd1	0.10555995
247	0xbf6b9575	-0.9202493
248	0x3e660ae4	0.22465092
249	0x3e1b6f6c	0.15179223
250	0xbe199dc9	-0.15001597
251	0x3e7e7d4f	0.24852489
252	0x3db6e8fd	0.08931158
253	0x3e39a58a	0.18129554
254	0xbf0d9750	-0.5530901
255	0x3e92fa73	0.28706703

bias f4 [4]
0	0xbd063de7	-0.03277388
1	0x3d860978	0.06544775
2	0xbd365e5b	-0.044523578
3	0xbd9c91e7	-0.07645016

weight f4 [128, 8]
0	0xbda367cb	-0.07978781
1	0xbdc901f8	-0.09814829
2	0x3f3e5d36	0.7436098
3	0x3ede28c1	0.43390468
4	0xbf2342ea	-0.6377398
5	0xbeb23600	-0.34806824
6	0x3f836db9	1.026786
7	0x3fbfae28	1.4975023
8	0x3f081943	0.53163546
9	0x3e8487b0	0.2588477
10	0xbe121c2c	-0.14268559
11	0xbe3bebed	-0.18351717
12	0x3f097ddd	0.5370768
13	0x3f22b0a7	0.635508
14	0x3e64adf6	0.22331986
15	0x3ef87c48	0.4853232
16	0xbe958141	-0.29200175
17	0xc062c275	-3.5431187
18	0x3e149654	0.1451047
19	0xbb2459e1	-0.0025077986
20	0xbe58823b	-0.21143429
21	0x3d1ea37c	0.03873013
22	0x3f4f11e6	0.80886686
23	0x3c41142a	0.011784593
24	0xbe938271	-0.28810456
25	0xbe8da363	-0.27663717
26	0x3c537835	0.012907078
27	0xbe4427c2	-0.19155791
28	0xbf9bc963	-1.2170833
29	0xbf431748	-0.762074
30	0x3e970c72	0.29501683
31	0x3f3fd939	0.7494083
32	0x3ede6670	0.4343753
33	0xbf071d83	-0.52779406
34	0x3ecc481c	0.39898765
35	0xbe735ddf	-0.23766278
36	0x3f34796f	0.7049779
37	0x3c13698a	0.00899733
38	0x3f433953	0.76259345
39	0xbd56d9c5	-0.052453775
40	0x3f072576	0.52791536
41	0xbea5ff93	-0.3242155
42	0x3e9e46e7	0.3091347
43	0xbea06ef7	-0.3133466
44	0x3f6d7d15	0.92768985
45	0x3eb0aace	0.34505314
46	0x3eceb00e	0.40368694
47	0xbbd2c196	-0.0064317686
48	0xbe89eee1	-0.26940063
49	0xc080d553	-4.0260406
50	0x3e495c4e	0.19664118
51	0xbeb787fb	-0.35845932
52	0xbe6ad6a5	-0.22933443
53	0xbe5b9ba6	-0.21446094
54	0x3d824112	0.063600674
55	0x3e274a70	0.1633699
56	0x3fa06ecd	1.2533814
57	0x3e9d37eb	0.30706725
58	0xbe02b32d	-0.12763663
59	0xbf4e794c	-0.80653834
60	0x3f5c6e4e	0.8610581
61	0x3f077c84	0.5292437
62	0xc01f9b6b	-2.493861
63	0xbf84e28a	-1.0381634
64	0x3ef4f59f	0.47843644
65	0xbd34aac7	-0.04410818
66	0xbead867d	-0.3389167
67	0xbec6eee3	-0.3885413
68	0x3f0b677c	0.5445478
69	0x3eb0ff8f	0.34569976
70	0x3d36e558	0.044652313
71	0x3eb31278	0.34975028
72	0xbd3d0f79	-0.046157334
73	0x3f4749fd	0.7784727
74	0xbdb3554a	-0.08756502
75	0x3eb225be	0.3479442
76	0x3d43cf1d	0.04780494
77	0xbebb6eb1	-0.36607888
78	0x3e0a3e6a	0.13500372
79	0xba8f2cc0	-0.0010923371
80	0x3f901db6	1.1259067
81	0x3d9c29a8	0.07625133
82	0x3efcb3b2	0.49355847
83	0x3e296351	0.16541792
84	0x3ff21e9c	1.8915591
85	0x3d2dd319	0.042437647
86	0x3df2ce4d	0.11855755
87	0x3fb4c161	1.4121515
88	0x3e0712bd	0.13190742
89	0xbea89170	-0.3292346
90	0x4003ec72	2.0613065
91	0x3fb8b2fb	1.442962
92	0x3bd2a15c	0.006427927
93	0x3e198081	0.14990427
94	0xbf15a06f	-0.5844793
95	0x3ea8eac3	0.3299161
96	0x3ebbeb9e	0.367032
97	0x3e164c83	0.14677624
98	0xbec4849d	-0.38382426
99	0xbc9c436b	-0.019075116
100	0xbec1b0f1	-0.37830308
101	0xbea9a1a8	-0.33131146
102	0xbc60567e	-0.013692496
103	0x3e4e82a1	0.20167018
104	0xbd8696e8	-0.06571752
105	0xc05bdf0b	-3.4354885
106	0x3eb92828	0.3616345
107	0xbcd37295	-0.025811473
108	0xbf12ab02	-0.5729219
109	0xbeb8a791	-0.36065343
110	0x3ed51036	0.4161393
111	0x3f335f94	0.70067716
112	0xbf060178	-0.5234599
113	0xc087fe14	-4.2497654
114	0x3e0f1ccd	0.1397583
115	0xbe97b0b7	-0.2962701
116	0x3ef614ff	0.48062894
117	0x3e9a17d7	0.30096313
118	0xbfa286b2	-1.2697356
119	0x3f0dece9	0.5543962
120	0x3eb68b90	0.35653353
121	0x3e300dd8	0.17192781
122	0xbe316077	-0.17321955
123	0xbe09d626	-0.13460597
124	0xbfa700ad	-1.3047081
125	0xbe481c88	-0.19542134
126	0x3ed90d76	0.42393082
127	0x3f9c4dd6	1.2211254
128	0xbf0c75b7	-0.5486712
129	0xc0aa39b1	-5.3195424
130	0x3d612ee0	0.054976344
131	0xbec1cff3	-0.37853965
132	0xbedeaac2	-0.43489653
133	0xbe2e31aa	-0.17011133
134	0xbdd556eb	-0.10416969
135	0x3e6cd2d2	0.23127297
136	0x3f8da5b1	1.106619
137	0x3b8343ba	0.0040058764
138	0x3f237f78	0.63866377
139	0x3eb4b688	0.3529551
140	0x3f866369	1.0499088
141	0x3df1a5ad	0.11799178
142	0x3fd447bc	1.6584392
143	0x3e76e242	0.24109748
144	0xbec084b8	-0.37601256
145	0xc06da40a	-3.7131371
146	0x3e8edd2c	0.27903116
147	0xbdd2768e	-0.10276519
148	0xbea29bcd	-0.31759492
149	0x3d7ce096	0.06173762
150	0x3efa8973	0.4893299
151	0xbe96c7b4	-0.29449236
152	0xbe90b5fc	-0.28263843
153	0x3e789b2c	0.24277943
154	0x3c8669d3	0.016407883
155	0xbecaf7cd	-0.39642182
156	0xbf2f4414	-0.68463254
157	0xbe449e94	-0.19201118
158	0xbf4ba06b	-0.79541653
159	0xbf377ddf	-0.7167644
160	0xbea463d9	-0.32107428
161	0xc087ccbd	-4.2437425
162	0x3e2ede76	0.1707705
163	0xbeb76c43	-0.35824785
164	0xbe901dbf	-0.28147694
165	0xbe5d73d9	-0.21626224
166	0xbd19a738	-0.037512988
167	0x3e3c4691	0.18386294
168	0xbf08cd08	-0.5343785
169	0xc082c369	-4.086354
170	0x3ded3e03	0.115840934
171	0xbeadb1fb	-0.3392485
172	0xbec14ed0	-0.37755442
173	0xbe1a6e99	-0.15081252
174	0xbda1c52d	-0.078989364
175	0x3e4d38c7	0.2004119
176	0xbf0ad13e	-0.5422553
177	0xc0794f3d	-3.8954613
178	0x3d93b865	0.07212905
179	0xbf00cd75	-0.503135
180	0xbef21a52	-0.47285706
181	0x3e630418	0.2216953
182	0xbe011bc1	-0.12608244
183	0x3e7dc44c	0.24781913
184	0xbeeb8bf0	-0.460052
185	0xc0850866	-4.157275
186	0xbc136949	-0.00899727
187	0xbef87136	-0.48523873
188	0xbeef52db	-0.467429
189	0x3e6d7e20	0.23192644
190	0xbdc6e4bc	-0.09711596
191	0x3e81c334	0.2534424
192	0x3e3e25a2	0.18569043
193	0x3f084c78	0.5324168
194	0x3d4f0986	0.05054619
195	0xbed36fc6	-0.41296214
196	0x3f77f75b	0.9686181
197	0x3f133fb4	0.5751908
198	0x3f302ba8	0.68816614
199	0xc00572c5	-2.08513
200	0xbebeec5a	-0.37289697
201	0xc06982ab	-3.6486003
202	0x3e85d255	0.26137033
203	0xbe67f8f4	-0.22653562
204	0xbeb225e2	-0.34794527
205	0xbe365738	-0.17806709
206	0x3f09059f	0.535242
207	0x3e853d2e	0.2602324
208	0xbf2abd99	-0.66695553
209	0xc071e96d	-3.7798722
210	0x3dcdbcf5	0.10045806
211	0xbee403e0	-0.44534206
212	0xbee15b82	-0.44015127
213	0x3e442e1e	0.19158217
214	0xbda684fe	-0.08130835
215	0x3e5a35a1	0.2130952
216	0xbf8bbb7c	-1.0916591
217	0xbf91f6ba	-1.140342
218	0xbf00533b	-0.50127
219	0xbf1843f6	-0.594787
220	0xbf96840c	-1.1759048
221	0xbf33b8d8	-0.70203924
222	0xbf2c1226	-0.6721519
223	0xbeddf885	-0.43353668
224	0x3e4e2ef0	0.20135093
225	0xbe5a2bb5	-0.21305735
226	0xbd9b1623	-0.075725816
227	0xbe3342d8	-0.17505968
228	0xbf9a387b	-1.2048486
229	0xbe14285c	-0.14468521
230	0x3e74cc7d	0.23906131
231	0x3f8baf71	1.0912915
232	0x3e2bf3c0	0.16792202
233	0x3ce3a30c	0.027787708
234	0x3e36cd47	0.17851745
235	0xbdca4224	-0.098758966
236	0x3f0d0c34	0.55096745
237	0x3e8b26fe	0.27178186
238	0x3f068ab5	0.525554
239	0x3e422e32	0.18962935
240	0x3e81e94b	0.253733
241	0x3f19b991	0.60048777
242	0xbfb0057d	-1.3751675
243	0xbf65fbb3	-0.8983719
244	0x3f65f5cb	0.89828175
245	0x3ea7d9a0	0.32783222
246	0xbf91c8b1	-1.1389371
247	0xbf9a0a19	-1.2034332
248	0x3f4c860a	0.7989203
249	0x3e8e52ad	0.27797452
250	0x3eeee92e	0.46662277
251	0xbcb5d10a	-0.022194404
252	0x3f889490	1.0670338
253	0x3c533916	0.012892028
254	0x3f23efb3	0.64037627
255	0xbf4ca96a	-0.79946005

bias f4 [128]
0	0x3e2a4922	0.1662946
1	0x3f0535b9	0.520351
2	0xbf24e924	-0.64418244
3	0x3ec61bbb	0.38693032
4	0xbea41d53	-0.32053623
5	0x3e106c8b	0.14103906
6	0xbee12ab9	-0.43977907
7	0xbc5cffd0	-0.013488725
8	0x3e139d7c	0.14415544
9	0x3f67a001	0.9047852
10	0x3def7368	0.11691934
11	0x3f182691	0.5943385
12	0x3f189760	0.5960598
13	0x3e5a049a	0.21290818
14	0xbfd3cf06	-1.6547554
15	0xbe91a54e	-0.2844643
16	0xbea3e9f3	-0.32014427
17	0xbe2865b1	-0.16445042
18	0xbf16c25f	-0.58890337
19	0x3f278dfe	0.6545104
20	0xbed57525	-0.41690937
21	0xbea9a5bd	-0.3313426
22	0xbeabee4a	-0.33580238
23	0xbe984919	-0.2974327
24	0x3e7a0be2	0.24418595
25	0xbe586159	-0.21130885
26	0xbe7f6011	-0.2493899
27	0xbed1cf65	-0.40978542
28	0xbe048f92	-0.12945393
29	0x3d61496d	0.055001665
30	0x3ebd7047	0.36999723
31	0x3ebfbebb	0.37450203
32	0xbe50701a	-0.20355263
33	0x3ee03c5e	0.43796057
34	0xbef74a4d	-0.48298874
35	0xbe1caea3	-0.15300994
36	0x3ee59a9f	0.4484453
37	0x3f09a250	0.53763294
38	0x3f038231	0.5137053
39	0xbf52511d	-0.8215502
40	0x3ead8564	0.3389083
41	0x3ebaea60	0.3650694
42	0xbed58238	-0.41700912
43	0xbe3d04e2	-0.18458894
44	0xbe18a458	-0.14906442
45	0xbf04927d	-0.51786023
46	0xbcf52f24	-0.029929705
47	0xbf213c9a	-0.62983096
48	0xbecd4ea7	-0.4009907
49	0xbf120316	-0.5703596
50	0xbe8572d6	-0.26064175
51	0xbe73893b	-0.23782818
52	0x3e433b87	0.19065677
53	0x3e784ce6	0.24248084
54	0x3f0d56d2	0.552106
55	0xbf9bb57a	-1.2164757
56	0xbf23a68a	-0.63925993
57	0xbf4f68e2	-0.81019413
58	0xbf4aa565	-0.7915862
59	0x3e4c0b24	0.19926125
60	0xbe9034dd	-0.2816533
61	0x3cfa44ed	0.030550444
62	0xbf425ff8	-0.75927687
63	0x3e757366	0.23969802
64	0x3e07233b	0.13197033
65	0x3e560921	0.2090192
66	0x3ecaf98a	0.39643508
67	0xbee345d1	-0.44389203
68	0xbe951d78	-0.29124045
69	0x3d8cce89	0.06875331
70	0x3e6ff3b3	0.23432808
71	0x3dfd70fa	0.12375064
72	0x3dc4528a	0.095860556
73	0xbe8cf69c	-0.27531898
74	0x3d1a0a89	0.037607703
75	0xbf0937c6	-0.5360073
76	0xbdc823e9	-0.09772474
77	0xbe540f8d	-0.20709057
78	0x3e21a35e	0.15784976
79	0x3f1c9e87	0.61179394
80	0xbeddd5ec	-0.43327272
81	0x3e31f68a	0.17379203
82	0xbe3089eb	-0.17240112
83	0x3ec6b03b	0.38806328
84	0xbf0ab64f	-0.5418443
85	0x3f32f7bf	0.6990928
86	0xbf0302a3	-0.511759
87	0x3e377c63	0.17918544
88	0x3d5c35cb	0.05376224
89	0x3defff4e	0.117186174
90	0xbf0c28b8	-0.5474963
91	0x3ea3cdcd	0.3199295
92	0xbed1dec4	-0.4099027
93	0xbef01c78	-0.4689672
94	0x3f46defd	0.77684003
95	0xbe240f2a	-0.1602141
96	0x3f0d0e27	0.5509972
97	0xbf33e422	-0.7026998
98	0xbebb7131	-0.36609796
99	0x3e8dfdc0	0.27732658
100	0x3d15bd03	0.03655721
101	0xbe0c93e2	-0.13728288
102	0xbe95a610	-0.29228258
103	0x3e6ae7fb	0.22940056
104	0x3ea9ccd4	0.33164084
105	0x3eb8b3a2	0.3607455
106	0x3ef9f460	0.48819256
107	0x3d17b09d	0.037033666
108	0xbe1f574b	-0.15560643
109	0x3ebf897b	0.37409577
110	0x3e1c0637	0.15236746
111	0x3f071b7c	0.5277631
112	0xbd3d5c79	-0.046230767
113	0x3f07166d	0.52768594
114	0xbdba7656	-0.09104602
115	0x3faf70ef	1.370634
116	0xbdef3a58	-0.1168105
117	0xbee4f93f	-0.4472141
118	0x3e086d80	0.13323021
119	0xbe906f24	-0.28209794
120	0x3e0d8c69	0.13823093
121	0xbeab42dc	-0.33449447
122	0x3f163416	0.58673227
123	0x3e7d528f	0.24738525
124	0xbeaa53e3	-0.33267125
125	0xbeea7a37	-0.45796368
126	0x3db6436a	0.08899577
127	0x3df0ca9f	0.11757397

weight f4 [1, 128]
0	0xbf8f4336	-1.1192386
1	0xbe9c86b1	-0.3057151
2	0xbf19becb	-0.6005675
3	0xbf2b8bed	-0.67010385
4	0xbe9746e9	-0.29546288
5	0xbf032e25	-0.51242286
6	0xbf3b1b8b	-0.730889
7	0x3f842208	1.0322886
8	0xbeb2a70b	-0.3489307
9	0xbf43a0f2	-0.7641746
10	0x3fc1cc84	1.5140538
11	0x400c8db7	2.1961496
12	0xbe472cd0	-0.19450688
13	0xbf8975bb	-1.0739053
14	0xc04e160b	-3.2200954
15	0xbfaa52c5	-1.3306509
16	0xc013c5e7	-2.308954
17	0xbfbffa2c	-1.4998221
18	0xbf8bfe55	-1.0936991
19	0xbef40b2a	-0.47664768
20	0xbf985b54	-1.1902871
21	0xbf873704	-1.0563664
22	0xbf942563	-1.157391
23	0xbfb533c9	-1.4156429
24	0xbfa2b38b	-1.2711042
25	0xbf38091d	-0.71888906
26	0xbf9f102c	-1.242681
27	0x3f97145a	1.1803086
28	0xbf54684b	-0.8297164
29	0xbe49028c	-0.19629878
30	0x3fb2d7e2	1.3972132
31	0xbf5a2522	-0.8521291
32	0x3fa217f2	1.2663558
33	0x3ff44112	1.9082358
34	0xbf85f8a7	-1.0466508
35	0xc005783b	-2.0854633
36	0xbef20a04	-0.47273266
37	0xbfc96824	-1.5734906
38	0xbeb3fb60	-0.3515272
39	0xc00c3eba	-2.1913285
40	0xbeb7da07	-0.3590853
41	0xbf83d9d5	-1.0300852
42	0xbf828795	-1.0197626
43	0xbf5aaa21	-0.85415846
44	0xbf1e96d6	-0.6194891
45	0xbf6bc612	-0.92099106
46	0xbea40f59	-0.3204296
47	0xc05dccf1	-3.4656336
48	0xbf3d78b7	-0.7401232
49	0xbf40d5ce	-0.7532624
50	0xbf9f6f28	-1.2455797
51	0xbef58658	-0.4795406
52	0xbf047c16	-0.5175184
53	0x3f60c4f1	0.8780051
54	0xbf8b7925	-1.0896345
55	0xc037cbcc	-2.8718138
56	0xbfbdee36	-1.4838321
57	0xc03ae823	-2.9204185
58	0xc03ccc5f	-2.9499738
59	0xbfa043b2	-1.2520659
60	0xbfa96ac4	-1.3235707
61	0xbea8fc56	-0.33005017
62	0xbf9ac7c7	-1.2092217
63	0xbef396ed	-0.47576085
64	0xbf8e0b0c	-1.1097121
65	0x3f99bec8	1.2011347
66	0xbea56980	-0.32307053
67	0xbfaa3b47	-1.329934
68	0xbfc38946	-1.5276268
69	0xbec81522	-0.39078623
70	0x3f75f985	0.9608386
71	0xbe88c3c6	-0.26711863
72	0x3eeacc73	0.45859107
73	0xbf52f7d8	-0.8240943
74	0xbf5395b8	-0.8265033
75	0xbf1de13d	-0.6167181
76	0xbfe45dc0	-1.784111
77	0xbf078ece	-0.5295228
78	0x3f96c436	1.1778629
79	0xbeac8fab	-0.3370336
80	0xbf2c3ea8	-0.67283106
81	0x405f2e5a	3.487204
82	0x3f8f6772	1.1203444
83	0xbfa49363	-1.2857479
84	0x40094684	2.144929
85	0xbec23b62	-0.3793593
86	0xbf8ec09b	-1.1152529
87	0xbf4efd38	-0.8085513
88	0xbed62e8c	-0.41832387
89	0xbec683f2	-0.3877254
90	0xbf661964	-0.89882493
91	0xbf07b956	-0.53017175
92	0x3ff915a4	1.9459729
93	0xbf6aec09	-0.9176641
94	0x3f6ef13f	0.9333686
95	0xbeed55c4	-0.46354496
96	0xbf8a6a63	-1.0813717
97	0xc025ba3c	-2.5894918
98	0xbf2d3c9f	-0.67670625
99	0x3f5b65c7	0.85702175
100	0x3fad43ea	1.3536351
101	0xc0122e94	-2.284093
102	0x3fb15adb	1.3855852
103	0xbec993fc	-0.39370716
104	0xbea7a743	-0.32744798
105	0xbf7ddc39	-0.9916416
106	0x3f48f355	0.78496295
107	0xbea2d916	-0.31806248
108	0x3f9135ba	1.1344521
109	0xbe8a7f82	-0.27050406
110	0xbec608fc	-0.3867873
111	0xbe9d7489	-0.30752972
112	0xbfa86a74	-1.3157487
113	0xbf059546	-0.521809
114	0xbf01c52d	-0.5069149
115	0x4009551f	2.1458204
116	0xc00e6580	-2.224945
117	0xc02770bc	-2.6162558
118	0x3f62928e	0.88504875
119	0xbf84b7f3	-1.0368637
120	0x3f329b4e	0.69768226
121	0xbf886d38	-1.0658331
122	0xbef23bde	-0.473113
123	0xbe70a177	-0.23499094
124	0xbf4bf895	-0.7967618
125	0xbfac20d8	-1.3447523
126	0xc0338226	-2.8048186
127	0x3fee5c1d	1.8621861
